models/mimo_model.pth (torch, 82041 bytes, 6 tensors)

net.0.weight f4 [128, 16]
000000 96 aa 56 3e 6c b8 37 3e cf 36 19 be 2a 48 86 3d
       0.20963511 0.17941445 -0.14962314 0.06556733
000010 89 d6 44 be 30 aa dd bd 53 95 b7 be 41 8a 80 bd
       -0.19222464 -0.10823476 -0.35856113 -0.0627637
000020 51 98 ae 3e 42 77 e4 3d ab 17 56 be f5 93 84 be
       0.34100583 0.11155559 -0.20907466 -0.25894132
000030 8d cf 3c 3e 06 c2 b1 3e 46 41 62 39 70 42 74 be
       0.1843855 0.3471834 0.00021577356 -0.23853469
000040 12 56 ed bd 69 00 38 3c 6b 45 89 bd 60 e8 30 3e
       -0.11588682 0.011230567 -0.067026936 0.17276144
000050 14 30 c6 3c 2c 68 7d be 4d b8 5a be cb 4e 26 be
       0.024192847 -0.2474677 -0.21359368 -0.16240995
000060 83 fc 5c 3c f7 27 e9 3d 4c 39 bf be 2e fd 80 3e
       0.013487938 0.11384576 -0.37348402 0.2519316
000070 4e ae 56 3e 63 5d 41 be 01 10 2f be 5b e7 98 be
       0.2096493 -0.1888328 -0.17095949 -0.2986401
000080 95 0a 34 3e bc 64 64 be ae d4 c7 bd d1 a7 e3 bd
       0.17582162 -0.22304052 -0.09757362 -0.11115993
000090 24 8f 43 3d 7f d9 00 be 16 44 8e 3c 41 b6 bc bd
       0.04774393 -0.12582968 0.01736645 -0.0921445
0000a0 bc a9 91 3e 0c 6b c8 3c a2 ad 31 be 17 67 67 3e
       0.2844981 0.024465106 -0.17351392 0.2259792
0000b0 29 b9 8b 3d c5 07 c6 3e d1 69 82 3e ba 66 3e 3d
       0.06822426 0.38677803 0.25471357 0.046484686
0000c0 6b ae 31 be 8b d7 5f bd 81 3d ff 3d 50 4e 2d be
       -0.17351691 -0.054648917 0.12462903 -0.16924405
0000d0 4a c6 c9 3c bf 9e 85 be ce 6a 90 3e 43 34 88 bd
       0.024630684 -0.26097676 0.28206486 -0.06650593
0000e0 76 0b 27 3e ab 12 5f be 34 a3 f3 bd b4 56 83 3e
       0.16312966 -0.21784465 -0.11896363 0.25652087
0000f0 4a 79 47 3e 53 47 83 be e1 93 b8 3d 5a 95 e7 bd
       0.19479862 -0.25640354 0.09012581 -0.113077834
000100 08 b0 91 3d 89 40 25 3d 2b 2d 03 3e f4 94 bf bc
       0.071136534 0.04034475 0.12810199 -0.023386456
000110 ce bb b3 be 6e ab b9 3c 54 17 47 3e de 6e 73 3e
       -0.3510422 0.022664752 0.19442493 0.23772761
000120 15 f7 b9 bd 11 20 94 3e f8 30 c8 3d fe df 4d 3e
       -0.0908033 0.28930715 0.09774965 0.20104977
000130 4e ca 3a 3d 99 2c 0f be c9 15 8b bd 9a 47 18 be
       0.04560309 -0.13981856 -0.067912646 -0.14871064
000140 41 8b 01 be 01 bb 09 bd ef b7 c2 bc 88 e2 6b be
       -0.12650777 -0.033625606 -0.023769347 -0.23035634
000150 1e fa 59 be 86 a2 da 3c e9 86 d8 be 8a 97 6f be
       -0.21286818 0.026688825 -0.42290428 -0.23397651
000160 c4 0c 85 be e1 58 a3 bd d6 6b 9e 3e d7 9f df bd
       -0.25986302 -0.07975937 0.30941647 -0.10919159
000170 8e 57 0b be cc 39 05 3e 00 08 2d be ad b8 c4 3d
       -0.13607618 0.13010329 -0.16897583 0.096055366
000180 5b 09 ea 3d e0 ff 85 be 9b d6 33 be 1c 94 31 3e
       0.11427566 -0.2617178 -0.17562334 0.17341655
000190 11 a8 b9 bd a6 32 60 3e 28 fa 52 3e ce 66 71 3d
       -0.09065259 0.21894321 0.2060324 0.058935933
0001a0 ff 35 8e be 1c 6e b0 bd 1b 4c 3a 3d 88 0d 3d 3e
       -0.2777557 -0.08614752 0.045482736 0.18462193
0001b0 ad 9d 83 3e 3f f6 75 bd 2c e6 98 be c5 0b 64 3e
       0.25706235 -0.06004929 -0.29863107 0.22270115
0001c0 4b dd d1 bd d4 c6 03 3e c1 ff 5f bd 20 3c 5f be
       -0.102472864 0.12868816 -0.054687265 -0.2180028
0001d0 f6 f4 d7 3d d5 e8 9e 3a 4f 27 65 3e 48 91 09 3d
       0.105447695 0.0012123833 0.22378276 0.033585817
0001e0 15 76 33 be 29 58 11 be 31 01 bd bd 13 dc 8e 3e
       -0.17525513 -0.14193787 -0.09228743 0.27902278
0001f0 36 9d 1e 3e 53 b9 15 be 73 45 93 3e ef 66 5f 3e
       0.15489659 -0.14621477 0.28763923 0.2181661
000200 6d 74 03 3d 0f 93 8b 3e b7 86 9a be a0 85 45 be
       0.032093454 0.27260634 -0.30180904 -0.19289255
000210 84 c5 8f be 8b 95 b9 3d f3 bd 69 3e cd 3c f3 bd
       -0.2808038 0.09061726 0.22826366 -0.11876831
000220 93 79 23 3e 17 c7 10 3e 9e 7b 86 3e de 15 e9 3d
       0.15964346 0.14138447 0.26266187 0.11381124
000230 d2 32 6d 3e 1c 87 90 be 08 21 0b 3e 2c 21 1f be
       0.23163918 -0.2822808 0.13586819 -0.15539998
000240 f7 fb f6 bd 74 5e 00 3d a6 02 ab bc e6 8a 3a 3e
       -0.12059777 0.031340078 -0.020875286 0.18217048
000250 74 34 88 3e 4d 00 4d be 1c 0b 97 bb c1 a8 a0 be
       0.2660252 -0.20019646 -0.0046094786 -0.3137875
000260 f0 b9 2b 3e c5 e1 03 3e c4 e1 19 3e d1 ee 1c 3d
       0.16770148 0.12879093 0.15027529 0.03831369
000270 67 a2 47 bd f8 63 b8 3d 56 a0 40 3b f1 6a b0 bc
       -0.048738863 0.090034425 0.0029392443 -0.021535369
000280 b5 bf 44 3e 38 78 02 bd 5c ed a1 bd e9 77 28 3e
       0.19213755 -0.03185293 -0.07906601 0.16451992
000290 7d 9f 88 3e ba 9b 89 be 10 60 85 3e c3 c1 27 bd
       0.2668418 -0.26876622 0.26049852 -0.04095627
0002a0 d7 3f 83 bd ab 88 9f 3e 0d 47 b9 be 3e e8 01 be
       -0.06408661 0.31158957 -0.3618702 -0.1268625
0002b0 be d6 a2 3d d3 71 a8 bd 03 ad 39 3d 45 a7 23 3e
       0.07951115 -0.08224835 0.045331012 0.15981777
0002c0 bf 43 14 3e 89 5d a3 bd 9d 05 44 3d 08 e9 e5 bd
       0.14478968 -0.07976825 0.047856916 -0.11226088
0002d0 89 24 d4 3d e0 b3 c4 bd a2 aa 5c 3e ed df 22 be
       0.10358531 -0.09604621 0.21549466 -0.15905733
0002e0 b6 7d a1 3e 7d 05 e8 bd d4 93 30 3e b9 45 c5 bd
       0.31541222 -0.11329172 0.17243892 -0.09632439
0002f0 cf 67 8c 3d 9f ba a1 3e 57 b3 f9 bd 3b 2c 5a 3e
       0.068557374 0.31587693 -0.121924095 0.21305935
000300 55 5f c2 bd e2 f0 5b 3d be 3e 4a 3e 86 48 56 3e
       -0.094908394 0.05369652 0.19750497 0.20926103
000310 38 8a 69 3e a9 b2 f5 bd 91 86 9a 3e c5 89 83 be
       0.22806633 -0.11996967 0.3018079 -0.25691047
000320 a2 b7 7c be a9 cb af be 43 a6 64 bc d7 96 15 be
       -0.24679425 -0.34335068 -0.0139556555 -0.14608322
000330 23 2d 66 bd 16 d7 84 3b f5 b6 64 be 2c ba 85 3e
       -0.05619539 0.0040539606 -0.22335418 0.261186
000340 b7 9c 23 3e 66 2e ab 3d ed 83 34 be e5 f5 95 be
       0.1597775 0.08358459 -0.1762845 -0.29289165
000350 20 18 57 3e 42 51 2a 3e 4c 0f 7f 3e 7c 0d a4 bd
       0.21005297 0.1663256 0.24908179 -0.080103844
000360 7a 75 4a be b1 c0 4d be f4 20 d1 3d 68 c2 36 bd
       -0.19771376 -0.20093037 0.102113634 -0.044618994
000370 51 86 0c 3d 29 30 1c 3e eb 99 9d bd 14 a2 4a 3e
       0.03430778 0.15252747 -0.07695373 0.1978839
000380 2f 6c 85 bd f1 70 28 3d eb 44 9a 3d ef e6 16 3e
       -0.06514775 0.041123334 0.07532676 0.14736532
000390 6a 93 68 bd 12 35 5a be af a5 b7 3d cd 79 0a 3e
       -0.05678121 -0.21309307 0.089671485 0.13523026
0003a0 19 da 72 3e 71 76 81 be 28 8e 0c be d5 5f a3 3e
       0.2371601 -0.25285676 -0.13726103 0.31909052
0003b0 e8 5f 6b 3d 4a 6e 93 3e a0 55 88 be 13 21 8d be
       0.05746451 0.2879508 -0.26627827 -0.27564296
0003c0 ea e5 11 be 96 83 c3 3d 5a 80 15 3e f5 3b 3c 3e
       -0.14247862 0.095465824 0.14599743 0.18382247
0003d0 66 a0 13 3e d7 20 c5 3e 19 de 65 bd 8a f0 82 3d
       0.14416656 0.38501617 -0.056120012 0.063935354
0003e0 99 30 39 3e 8c 6b 2c be b1 36 ce 3d e7 d1 89 be
       0.18084945 -0.16837901 0.10069025 -0.26917955
0003f0 d1 a3 64 3e 5a b7 37 3e 3f 31 16 be 2f 57 06 3e
       0.22328116 0.17941037 -0.14667223 0.13119195

net.0.bias f4 [128]
000000 06 34 13 bd 8b bb 0a 3e 23 3d f1 be 66 d1 a4 be
       -0.035938285 0.13548104 -0.47116956 -0.32191008
000010 fb 60 f8 bd 8f 44 25 be e7 0b 30 be ec 9d a8 be
       -0.121278726 -0.16139434 -0.1719204 -0.32932985
000020 99 09 0f be e5 af 8f bd 9f e8 e7 be 8b 10 a0 be
       -0.13968505 -0.07015971 -0.45294663 -0.3126262
000030 04 d1 78 3d 68 c0 c3 be 8d d4 d6 3d 24 38 68 be
       0.060746208 -0.38232732 0.104897596 -0.22677666
000040 cf b9 b1 be 75 b6 b6 be 1b 94 ae bd fb 51 18 3e
       -0.34712073 -0.3568608 -0.085243426 0.14875023
000050 a8 bd 9e be 45 eb d8 3d 13 61 d4 bd 92 0a 74 be
       -0.3100407 0.10591749 -0.10370078 -0.23832157
000060 88 c3 52 be 71 38 63 3d 30 64 6d be 55 7d d5 3d
       -0.20582402 0.05547375 -0.2318275 0.10424296
000070 d1 e8 95 bb 1f d3 9c be b8 7e 82 3d 84 9e 82 be
       -0.004574873 -0.30629823 0.06371826 -0.25511563
000080 4b b6 1e be 87 aa 15 3e 98 0a 30 3e 43 f1 0e be
       -0.15499227 0.14615832 0.17191541 -0.13959222
000090 45 16 8e be 06 01 b8 bd 58 4a 08 3d d6 a6 76 3d
       -0.27751365 -0.0898457 0.033274025 0.0602177
0000a0 35 cc 24 be 29 bf ba be 49 d2 8a be e7 ac d8 be
       -0.16093524 -0.3647397 -0.2711356 -0.42319414
0000b0 a8 b2 da be d5 59 01 be 7d cb 65 be 42 cb 9e be
       -0.4271443 -0.12631924 -0.22440906 -0.31014448
0000c0 ef 17 8b be a7 97 94 be e1 9e 98 bc 2d 8a 2d 3e
       -0.27166697 -0.29021952 -0.018630447 0.16947241
0000d0 e3 2b d4 be a4 ad df be 9a 1d 5e be 4c 4b 6f be
       -0.41439733 -0.43687165 -0.2169098 -0.23368567
0000e0 93 a9 91 be c5 c0 08 be 84 fa 75 be b5 31 be bb
       -0.28449687 -0.13354786 -0.24021345 -0.0058042654
0000f0 6e 39 59 be d7 8f 41 be a1 23 b6 be dc 9c 1f 3e
       -0.21213314 -0.18902527 -0.35574058 0.15587181
000100 f1 b0 96 3d bf 00 0e be ea d2 04 be dc d2 08 bf
       0.07357968 -0.13867472 -0.12971082 -0.53446746
000110 b8 fa d3 3c e9 91 df be 55 65 be be 4a 7a 21 be
       0.025876388 -0.43666008 -0.37186685 -0.15769306
000120 12 fd 49 be e1 5f fc 3d 2a 45 3d 3e e8 c0 a5 bc
       -0.19725445 0.12322975 0.18483415 -0.020233586
000130 7a 0a 8d be 6a af 67 3d 78 a3 c4 be c3 76 da bd
       -0.27547055 0.056563772 -0.38405967 -0.10667183
000140 c8 fa 07 3e a1 e6 e6 be 80 55 63 be f0 5a 2a be
       0.13279259 -0.4509783 -0.22200584 -0.16636252
000150 a6 11 03 be aa 97 6b be 9e ea 2c 3e b8 23 8f be
       -0.12799701 -0.23007074 0.16886374 -0.2795694
000160 ea cb 08 be b5 7a b3 3d a4 24 91 be fb 68 4b be
       -0.13359037 0.08763639 -0.28348267 -0.19864266
000170 dd b0 6c bd 48 1a d8 bd 3c 7b ae 3d c7 d2 a9 3d
       -0.057785857 -0.10551888 0.08519599 0.08292156
000180 9e c7 f8 be 8a 6c 81 be 0d 84 dc 3c 70 2b 0d be
       -0.48589796 -0.2527812 0.026918435 -0.13786101
000190 df ad 64 be af b1 1e 3e 37 ac 6b be 93 fb c7 be
       -0.22331952 0.15497468 -0.23014913 -0.39059123
0001a0 27 1f db bd b4 bc 11 3d a5 72 a4 bc e2 35 92 bd
       -0.10699301 0.035580352 -0.020074198 -0.071391836
0001b0 0f 74 d7 be af a0 9b 3c e7 97 89 be a7 fa 76 be
       -0.42080733 0.018997518 -0.26873705 -0.24119054
0001c0 49 7a 2c bd bd f4 c0 be 22 8c 90 be a0 3a 22 bb
       -0.042108808 -0.3768672 -0.28231913 -0.0024754182
0001d0 e6 65 9b be 95 19 9b 3d 4f 49 84 be 98 df 71 be
       -0.3035118 0.07573239 -0.2583718 -0.2362045
0001e0 7e 83 c3 be da 87 a3 be 13 9d 27 be db 68 bd be
       -0.38186258 -0.31939584 -0.16368513 -0.3699406
0001f0 16 e3 94 be cc 21 6f bd ca d0 8c be 94 43 08 be
       -0.29079503 -0.05838184 -0.27503043 -0.13307029

net.2.weight f4 [128, 128]
000000 cd c5 5d 3d 70 0b f0 bb 79 e9 99 3c 3c f6 83 be
       0.054143716 -0.007325582 0.018788086 -0.257738
000010 ce af 30 bc ec 6a ad 3b 69 18 1e 3b f0 26 c9 bd
       -0.010784103 0.005292287 0.0024123436 -0.0982188
000020 9c 07 f2 3c 3d 73 59 3d 31 c4 28 be e9 97 8e 3d
       0.029544644 0.053088415 -0.16481091 0.06962568
000030 2d 9d 5e 3d dc 33 22 3e eb ee 7d be 5a f3 c7 3d
       0.054349113 0.15840095 -0.24798171 0.097632125
000040 06 c8 70 3c bb 5f f9 3d 37 d3 7b bd 4c ee c0 bd
       0.014696127 0.12176462 -0.061480727 -0.094204515
000050 dc 6e 64 bd 42 6a 14 3d 28 1d de 3d df 55 f1 bb
       -0.055769786 0.036234148 0.10845405 -0.007364973
000060 e1 9f d1 3c da 13 0a bd 12 f5 4a bd 22 ff 8e bc
       0.025588932 -0.03371034 -0.049550124 -0.017455641
000070 2b 78 64 bd 6e 67 ea 3c b5 ee f1 3d bb 14 e3 3d
       -0.055778664 0.028613772 0.11813108 0.110879384
000080 f3 27 69 be 09 2c d2 3d 0f 11 a4 3d a2 10 68 3d
       -0.22769146 0.10262305 0.08011066 0.056656487
000090 45 83 3a ba 50 26 ef bd 17 1b 2f bd 4b 91 a3 3d
       -0.00071148976 -0.116772294 -0.042750444 0.07986697
0000a0 a6 25 a8 bd 43 96 82 3d ba 95 55 3d 00 4b e2 bd
       -0.08210306 0.063763164 0.052144744 -0.11049461
0000b0 e1 7c e4 3d 67 b3 03 3e 0a f8 20 be 0f f9 8c bd
       0.11156631 0.12861405 -0.1571962 -0.06883442
0000c0 94 9a e6 3d 7b 91 2f be 52 58 b6 3c 2f c7 59 be
       0.11259952 -0.1714534 0.022258911 -0.21267389
0000d0 af 5f 1a 3e b6 2f c6 bd ff 07 1b 3e 97 e2 98 bd
       0.15075563 -0.09677069 0.15139769 -0.074650936
0000e0 00 36 b2 3b 5f 13 ae bc e4 ea 00 bc 16 16 83 3d
       0.005438566 -0.021249471 -0.007868502 0.06400697
0000f0 06 72 60 bd 9f e1 38 3d f5 19 61 3a 68 b4 6d bd
       -0.05479624 0.045137044 0.0008586937 -0.058033377
000100 23 ec 87 3b 8d 5d e2 3d 6e c5 96 bd 92 fb 71 bb
       0.0041480227 0.11053 -0.073618755 -0.003692363
000110 aa 95 a6 bc 6c 17 9a bd 5e ce 01 be 78 85 96 bd
       -0.020335037 -0.075239986 -0.12676379 -0.07349676
000120 46 88 9d 3d 4a 17 1b 3d 25 17 87 bb e2 81 b4 3c
       0.07692008 0.037864007 -0.004122632 0.02203459
000130 55 ce 01 be 9e ee 1d 3d 17 c0 dc 3d f4 df 18 3d
       -0.12676366 0.03855764 0.10778826 0.037322953
000140 e9 e8 1a bc b8 72 6f 3d ac d0 fc bd d0 63 2b 3d
       -0.009454944 0.058459014 -0.123444885 0.041843235
000150 42 93 1e bc 65 a8 cb bd ed b3 f3 3c e3 cc 25 3e
       -0.009678664 -0.09944228 0.029748881 0.1619144
000160 db 17 1b 3e 8d d1 0f bb e3 bc 85 bd 8e 8b 11 bd
       0.15145819 -0.002194497 -0.06530168 -0.03553348
000170 44 32 66 3d 70 c6 ab bd 8d cf 2b 3d 24 df 8f 3d
       0.05620028 -0.08387458 0.041945983 0.070249826
000180 0c 5a 38 bd c9 6d 1f 3d 30 eb b7 3d 03 91 8e 3d
       -0.04500775 0.03892306 0.08980405 0.069612525
000190 fe 25 3b be c3 fa 92 3d 8f 26 94 bd 38 cd cf bd
       -0.18276212 0.07176735 -0.07233917 -0.10146564
0001a0 cb 93 04 bd 18 04 b4 bd 71 7d 18 be eb 76 35 be
       -0.03236751 -0.08789843 -0.14891602 -0.17721145
0001b0 42 fd 0a bd 61 2a c0 bb c7 2c 58 be bb 8a be 3d
       -0.03393293 -0.005864427 -0.21110831 0.093038045
0001c0 99 8c 85 bc aa 44 64 3d 61 87 16 3e 3c 3a da bd
       -0.016302394 0.055729546 0.1470008 -0.106556386
0001d0 7b 25 35 be b5 ec af 3c a0 0c f5 3c 29 9c b2 3c
       -0.17690079 0.021475175 0.029913247 0.021802979
0001e0 b0 f9 12 3e c0 dc 74 bd 68 65 55 bd 1a 66 04 bd
       0.1435306 -0.059780836 -0.05209866 -0.032323934
0001f0 1e c1 54 bd be f9 d5 3d f4 ef 80 3d dd f4 3e 3d
       -0.051941983 0.10448025 0.062957674 0.04662024
000200 51 64 5d be 8f d0 31 be 80 50 2b 3d f4 15 a3 3d
       -0.21620299 -0.17364715 0.041824818 0.079631716
000210 27 1b 03 3e 31 61 93 3c 5b 6b b9 bd 99 7f 26 3d
       0.12803327 0.01799068 -0.090536796 0.04064903
000220 68 b6 f2 bc da 62 73 3d c8 8d 9e 3d 88 7b 40 bd
       -0.029627994 0.059420444 0.077418864 -0.04699281
000230 63 52 8e bc 49 e1 e1 3d 35 d0 0d 3d 85 43 2d be
       -0.01737327 0.11029298 0.03462239 -0.16920288
000240 54 37 b4 bb 18 29 50 bd f0 92 f8 3d 0d a6 9d 3d
       -0.0054997597 -0.05082044 0.12137401 0.07697687
000250 19 b2 b0 bd 6c 16 7f 3b 8f 15 38 bd a3 96 28 3d
       -0.086277194 0.0038923277 -0.044942435 0.041159283
000260 6d b7 fc 3a 25 9b 6d 3d f9 03 3e bd 17 cb ae 3d
       0.0019280739 0.058009285 -0.046390507 0.0853483
000270 91 5a ce bd 33 41 2c be 55 65 06 3e 51 75 83 bd
       -0.10075868 -0.16821747 0.13124593 -0.06418861
000280 fa 02 e7 bc d5 df 62 bd 31 66 da 3d c7 89 44 bd
       -0.028199662 -0.055389244 0.10664023 -0.047982957
000290 12 6a 19 3e e0 d3 03 3e a1 da a1 bd 03 48 80 bc
       0.14981869 0.12873793 -0.07903028 -0.015659338
0002a0 d8 1f 35 be bd 9d b7 bd d8 e9 a1 b9 52 ed 08 bd
       -0.17687929 -0.08965633 -0.0003088254 -0.03342945
0002b0 2a 88 84 be 39 8f a1 bc 3f b9 98 3d 3e a8 10 be
       -0.25885135 -0.019721614 0.07457208 -0.1412668
0002c0 a4 83 75 be aa 0b 44 be 94 46 ce 3d 71 70 48 be
       -0.23975998 -0.19145074 0.100720555 -0.19574143
0002d0 3a e1 78 bc 20 1e 8e be bc 6e cf 3d 45 e7 b3 ba
       -0.015190417 -0.2775736 0.10128543 -0.001372554
0002e0 c3 6b 08 bd ff fe 36 3d 21 b0 f7 bd 02 6a bb bd
       -0.033305895 0.044676777 -0.12094141 -0.09151079
0002f0 bf 61 3f 3e 1b eb af bb 6f d2 ef 3d c4 85 f8 bb
       0.18689631 -0.005368603 0.11710059 -0.0075843055
000300 d7 7c d6 bc 10 e0 8f bd a6 7b b0 bd 53 b5 d7 bc
       -0.026182575 -0.070251584 -0.08617334 -0.02633158
000310 a4 32 dc 3c 8d 3e bb 3c 5b ec a0 bd 99 90 88 bd
       0.026879616 0.022856975 -0.07857581 -0.06668205
000320 d5 1b 9f bc 13 e6 69 bd 17 00 4a 3d bb 1e 9e 3d
       -0.019422451 -0.05710418 0.049316492 0.07720705
000330 3b 92 b0 3d 98 88 cd bc 38 6a d2 3d 1b 49 66 bd
       0.08621641 -0.025089547 0.10274166 -0.056222063
000340 11 f4 76 be 37 53 05 bd e6 29 22 be 7f da 61 3d
       -0.24116541 -0.032550063 -0.15836295 0.055140015
000350 09 42 43 3d 73 2a ea 3d c4 90 2b 3d 4c 94 f3 3d
       0.047670398 0.11433878 0.041886106 0.1189352
000360 43 1d a8 3d 6d 01 f5 3d 1d 28 b1 bc 74 ce af 3d
       0.08208706 0.119631626 -0.021625573 0.085843
000370 e4 3d 1d bd a5 58 c2 bd 40 dd 4e be e4 14 fc bd
       -0.0383891 -0.09489564 -0.20201588 -0.12308672
000380 d3 0e 0a bd 62 ca e1 bd 17 10 a5 3d 42 6a c8 3c
       -0.033705544 -0.110249296 0.080597095 0.02446473
000390 8a 22 0e bd 32 2f b5 bd 88 81 c5 bc 30 10 81 be
       -0.034700908 -0.088468924 -0.024109617 -0.25207663
0003a0 de 48 8e 3c 02 39 d8 bd 4f d7 4c be 06 77 59 bd
       0.01736873 -0.105577484 -0.20004009 -0.053092025
0003b0 73 6b 26 be 49 ab d0 3c 71 42 0f 3e c2 90 09 bd
       -0.16251926 0.0254723 0.13990189 -0.033585317
0003c0 74 60 4b be cb 98 86 3d a2 28 7f bc 53 bb e4 bd
       -0.19861013 0.06572112 -0.015573652 -0.11168542
0003d0 8b 25 a3 bd b7 7d 47 bc 8c 66 da bc 86 7c cb 3d
       -0.07966145 -0.012175969 -0.026660226 0.0993586
0003e0 30 53 ff bd c4 fa 47 3e 48 67 48 3c 4d 7a 38 bd
       -0.12467039 0.19529253 0.012231655 -0.04503851
0003f0 ed 7b 53 be 3a 2d 1e 3e 88 3c 86 bd 7b 14 cc 3c
       -0.20652743 0.1544694 -0.06554514 0.02491211

net.2.bias f4 [128]
000000 26 54 1c bd bb 7d a3 bd d3 7e 2f 3c a5 5b 43 be
       -0.038166188 -0.079829656 0.01071139 -0.19077928
000010 d7 c0 b6 bd 24 47 dc bd e8 b0 eb 3c 06 e7 09 be
       -0.089235 -0.107557565 0.028770879 -0.13467035
000020 b1 6d 30 bd fc 77 05 be 81 c0 1d ba 8f ae 4c bd
       -0.04307336 -0.13034052 -0.000601776 -0.04997116
000030 ff 68 87 bb c1 34 db 3c ee 8c 45 be c7 93 1f be
       -0.0041323896 0.026758553 -0.19292042 -0.15583716
000040 93 66 1c bd ee 1b 95 bc 6f f1 ac bc 05 ab 0d be
       -0.03818376 -0.018201794 -0.021111218 -0.1383477
000050 b5 74 1f 3c 82 92 0f 3d 5d 79 16 be 4e 03 71 bd
       0.009732415 0.03505183 -0.14694734 -0.058841042
000060 84 42 bb 3d 74 2f a3 bd e2 7a 5a be 9d cf 5e 3d
       0.09143546 -0.07968035 -0.21335939 0.054397214
000070 4a 59 27 bd af b9 1a be 66 45 05 be ab 6f 9b bc
       -0.040856637 -0.15109895 -0.13014755 -0.018974146
000080 b9 46 80 bd 68 d5 e3 3b ca 6a de 3c d6 9a 0e bd
       -0.06263489 0.0069529302 0.02715053 -0.03481563
000090 85 92 08 be 4f fb 04 bd a3 43 92 bd ac 8c f9 3c
       -0.13337143 -0.03246623 -0.07141807 0.030462585
0000a0 00 02 51 be 70 1e 49 3d bb b3 2e 3c 18 33 a2 bd
       -0.20410919 0.049101293 0.010662968 -0.079199016
0000b0 a1 2d 1c 3c aa 5f 0c bd dc ac 06 be f8 35 03 be
       0.009532363 -0.03427092 -0.13151878 -0.12813556
0000c0 dc b9 31 be 0b b1 d1 bd ee c5 d4 3d 7e d3 0e be
       -0.17356056 -0.102388464 0.103893146 -0.13947865
0000d0 3c b5 76 bd 16 42 c8 bc 18 03 03 be ba ad aa bd
       -0.060231432 -0.024445575 -0.12794149 -0.08333917
0000e0 c5 44 8f bd f5 84 37 be 7c 3c a5 bd 3a 05 e0 bd
       -0.069955386 -0.17921813 -0.08068177 -0.10938497
0000f0 a0 d8 35 be 85 82 ae bd 45 68 ac 3d c2 25 db bd
       -0.17758417 -0.085209884 0.08418325 -0.10700561
000100 82 17 1e bd fb f5 63 be db e8 01 be c2 0c d2 bc
       -0.038596638 -0.22261803 -0.12686484 -0.025640849
000110 5a e9 bc bd ae a1 47 bd 99 fc 54 bd ec c6 d5 bc
       -0.09224196 -0.048738174 -0.05199871 -0.02609583
000120 5f f6 83 bd e2 34 94 bd 7e fa a4 bd 37 a5 3c 3d
       -0.06443476 -0.07236649 -0.0805559 0.046056
000130 98 98 c4 bd 82 84 7d 3d d0 aa 99 bd 93 a1 73 bd
       -0.095994174 0.061893947 -0.07503283 -0.05948026
000140 5f 26 dc bd e9 f1 fc bd 99 46 23 3d 68 d5 b5 bd
       -0.10749506 -0.12350828 0.03986225 -0.08878595
000150 fe 43 18 39 1d cb 0c be 34 2f dd 3c 3b 3d cb bd
       0.00014521179 -0.13749357 0.027000047 -0.09923788
000160 38 5d d0 bc 7d a9 de bd 8b 22 52 bd 39 71 9f bd
       -0.025435075 -0.10872171 -0.051302474 -0.077852674
000170 52 51 dc bd 3f 08 bc bd 4b 19 e6 bd c6 35 51 bc
       -0.10757698 -0.0918126 -0.11235293 -0.012769168
000180 6e 5a fc bb e1 6b e1 3c 42 91 cd bd 95 c0 e8 bd
       -0.0077012097 0.027517261 -0.10037471 -0.11364857
000190 94 a8 c1 bc 22 dd 3d be 90 86 d8 bd b2 44 25 be
       -0.023639955 -0.18541387 -0.10572541 -0.16139486
0001a0 75 6b ea bd a1 70 a8 3c e1 3c 20 be 76 bf 11 bd
       -0.11446277 0.020561518 -0.15648223 -0.035582982
0001b0 1f e2 70 bd 4f 62 b3 bd af f9 9a bd 34 a5 37 3d
       -0.058809396 -0.08758985 -0.075671546 0.044835284
0001c0 8c 5d 76 bd c4 f8 a6 bd bb c5 db bd d0 cb cc bd
       -0.060147807 -0.08152917 -0.107310735 -0.09999812
0001d0 7d 0b 35 bd 2e 21 41 bb 3a 80 b8 bc da fd 04 be
       -0.04420041 -0.002946924 -0.02252208 -0.12987462
0001e0 1a 4b cb bc 1a e3 1a be a1 6e 6e 3c ee 65 0f bc
       -0.024816085 -0.15125695 0.014552743 -0.008752329
0001f0 20 1b 1e 3d c4 86 06 be ed b8 a3 bd 0d 15 97 bd
       0.038600087 -0.13137347 -0.07994256 -0.07377062

net.4.weight f4 [8, 128]
000000 8c 95 43 3d 44 13 2b 3e be 89 0f bc 54 b4 7e 3e
       0.04775004 0.16706568 -0.008760868 0.24873477
000010 db 2e bf 3d 02 04 41 3e 58 55 92 bd 79 86 4c be
       0.09335109 0.18849185 -0.07145184 -0.19973172
000020 0c dd 65 be 23 1a a7 3d 19 f1 85 bd 2e 44 cd bd
       -0.22447604 0.08159282 -0.06540126 -0.1002277
000030 1f 9b dd bd 00 ee 14 be ac 4a 69 bd 8a 43 cd 3d
       -0.108206026 -0.14543915 -0.05695598 0.10022648
000040 b4 2f 34 be 5d f6 ee bb 03 b5 b2 bd 9e 9a 95 bd
       -0.17596322 -0.0072925524 -0.087259315 -0.073048815
000050 3d 79 e2 bc ba fe bb bd 59 e9 35 be 6c 7e d9 3d
       -0.027645702 -0.091794446 -0.17764796 0.10619816
000060 84 ca 3b 3d 13 d3 23 be c6 5a 18 3e fc f7 28 be
       0.04584743 -0.15998487 0.14878377 -0.16500849
000070 91 0b e5 3d 5f b8 fa 3c 26 4e 0b 3e 38 38 e4 3d
       0.11183847 0.030605493 0.1360403 0.111435354
000080 4b a1 ef 3d 46 89 a8 bd 03 56 60 be 21 39 43 3c
       0.11700686 -0.08229308 -0.21907811 0.011915476
000090 a9 16 b9 bd dd 68 9b bd d1 0b 55 bd 4f 24 59 bd
       -0.09037525 -0.075883605 -0.052013222 -0.053013142
0000a0 c3 06 f7 3c 3a 90 72 bd 9b 60 1b bc e6 29 fb bd
       0.030154591 -0.059219576 -0.009483482 -0.12263851
0000b0 45 a8 90 bd 0d ef 02 3d d8 40 0f 3e 77 35 4a 3d
       -0.07063345 0.031966258 0.1398958 0.049367394
0000c0 19 bd e5 be a5 bb d4 3d 68 1c bd 3d 0e b5 47 3d
       -0.44870833 0.10387353 0.09233934 0.04875665
0000d0 54 7c 83 bc ff 5f 3a 3e 8b 73 3f 3d 8a 76 48 bd
       -0.016050495 0.18200682 0.04674105 -0.048941173
0000e0 76 96 26 3e 98 a6 0d be 93 fe a9 bc 67 c9 5e be
       0.16268334 -0.13833082 -0.020751273 -0.21756516
0000f0 8c 44 dd bd 88 f8 29 3e b5 eb 58 be 88 9f 05 be
       -0.1080409 0.16598713 -0.21183665 -0.13049138
000100 de 48 48 39 17 97 5c be 1b 23 b2 3d 18 b9 45 3c
       0.00019100631 -0.21542011 0.08698102 0.012068056
000110 82 b2 c2 3c dd 9e ff 3d 62 9a b0 bd 27 4d 21 3e
       0.02376676 0.12481473 -0.08623196 0.15752088
000120 fb 65 0d 3e f4 c6 aa bd a0 e1 aa bb 9e 04 f0 3d
       0.13808434 -0.083387285 -0.005214885 0.11719631
000130 61 32 70 3e 99 32 95 bd 29 06 2e be dd 18 66 be
       0.23456718 -0.07285041 -0.16994537 -0.22470422
000140 5f d6 d3 bc fc b4 77 be 9e 05 fd 3c 6f ff 22 be
       -0.025859056 -0.24190134 0.030886468 -0.15917753
000150 0e 99 09 bd b8 5d f9 bc 60 a2 1d bd 48 7f db bd
       -0.03359323 -0.030440196 -0.03848493 -0.10717636
000160 b9 17 5b 3c 47 3c 61 be c5 7a 82 bd c9 a7 ea 3c
       0.013372355 -0.2199565 -0.06371073 0.02864446
000170 40 f2 00 3d d4 df e6 3d 34 de cc bd 9f 87 5d 3e
       0.031481028 0.112731606 -0.100033194 0.21633767
000180 a5 3e 42 3e 98 b2 f2 bd 93 47 24 3e a5 b8 a2 bd
       0.1896921 -0.1185047 0.16042928 -0.079453744
000190 b7 9f b0 3d a5 3b 70 3e 39 5a 30 be 59 e0 fa bc
       0.08624213 0.23460253 -0.17221917 -0.030624555
0001a0 da a9 72 be ca 64 e7 3d 3f 75 d0 bc 57 30 9a bd
       -0.23697606 0.11298521 -0.025446532 -0.07528751
0001b0 1c b5 17 3e a2 ed cf 3c e1 bf 90 bd e1 8e 72 3c
       0.14815181 0.025381867 -0.07067848 0.014804573
0001c0 85 93 d7 3c 5a af 56 3e 5e 94 9a bc 79 a7 35 3e
       0.02631546 0.20965329 -0.018869575 0.17739667
0001d0 88 a8 11 bd 43 f6 dc bc 90 c3 4f bd 00 2c de bc
       -0.035561115 -0.026972895 -0.050723612 -0.02712059
0001e0 ca 32 99 3d 1b 99 0b 3e d2 e0 0f bd f7 a8 09 3e
       0.0748039 0.13632624 -0.035126515 0.13443361
0001f0 3f 84 7d be fc 3c 2c bd 5a 52 a2 bd 82 73 27 be
       -0.24757479 -0.042050347 -0.079258636 -0.16352656
000200 99 a0 7d 3d 9c 80 8f 3e b4 c1 75 bd 5b 0a c8 3c
       0.061920736 0.2802781 -0.059999183 0.024419
000210 63 54 0c 3e 92 d8 76 3e 3c 82 02 bd 23 ca 58 be
       0.13704066 0.24106053 -0.031862482 -0.21170859
000220 e3 39 80 3e 48 d4 f9 3d f3 7c 66 be a0 92 8b be
       0.25044164 0.121986926 -0.22508602 -0.27260303
000230 51 25 20 be d4 fd 85 bd fb cd 22 be 98 f7 6b 3d
       -0.15639235 -0.065425545 -0.15898888 0.05760917
000240 61 15 01 bd 6e 20 8f 3d 02 aa 85 3e 4c 0f 03 be
       -0.03151453 0.06988607 0.26106268 -0.12798804
000250 f9 9f 1b 3e 35 44 96 bd ca 01 c0 bd 53 00 f6 3b
       0.15197743 -0.07337228 -0.09375341 0.007507363
000260 bf 0e a6 3d 72 74 0e be af 39 d3 bd ac 87 9c bd
       0.08108281 -0.13911608 -0.10313737 -0.07643065
000270 70 eb e4 bd 80 0f 40 be 4d f3 66 3d e1 86 36 3e
       -0.11177719 -0.18755913 0.056384373 0.1782489
000280 e0 ee 7b bd c1 9c a1 3d 09 13 92 be a7 ce a8 bd
       -0.061507106 0.078912266 -0.28530148 -0.08242541
000290 e7 6b 33 3e ec dc 58 be f9 be 54 3e 28 de 4b be
       0.1752163 -0.21178025 0.20775975 -0.19908965
0002a0 c3 b9 53 bd f3 9f ea bc 1f fc 84 bd 11 83 c3 3d
       -0.051690828 -0.028640723 -0.06493401 0.09546483
0002b0 49 a7 f2 3d f1 93 08 3e 38 0f 36 3e 06 00 0e 3d
       0.11848313 0.13337685 0.17779243 0.03466799
0002c0 be 00 ee 3c 2f bb 7c be d2 c1 8c be a5 06 27 3c
       0.029053088 -0.2468078 -0.27491623 0.010194455
0002d0 4e 0d e9 bd a7 27 e9 3d 17 0e ff 3d cb 3a a8 bd
       -0.11379491 0.11384516 0.12453859 -0.08214339
0002e0 83 49 f6 bd 03 9b 47 3e 91 fc c6 bd 0d f1 92 bd
       -0.1202574 0.19492726 -0.09716142 -0.07174883
0002f0 4c 8d 36 3e 06 02 cf 3d 5f 1a 30 3e 01 8c 83 3e
       0.17827338 0.10107808 0.1719756 0.25692752
000300 1c 2d 9c bd c6 a8 c1 3e 8b 5d 2a 3e 31 69 81 bc
       -0.076257914 0.37824076 0.16637246 -0.01579723
000310 ac 7c da 3d 28 5a 94 bd 65 3d e9 bc 93 21 b0 3d
       0.106683105 -0.072437584 -0.028471658 0.08600154
000320 65 70 8f be bc c2 03 be c0 11 6a be 12 87 5b be
       -0.28015438 -0.12867254 -0.22858334 -0.21438244
000330 29 ee 38 be 39 38 5c be 92 35 b4 3e 02 99 f9 3d
       -0.18059601 -0.21505822 0.3519712 0.12187387
000340 ec f0 20 be 06 00 d8 3d bd 78 35 3d fb 78 65 3e
       -0.15716904 0.105468795 0.044304598 0.22409432
000350 d5 ee 0e bd e1 85 40 3e b4 e8 3c 3e 9d 7b 03 be
       -0.034895737 0.18801071 0.18448144 -0.12840123
000360 17 dd ed bd bd c1 34 3e cf ef b7 bb c7 74 78 be
       -0.11614435 0.1765203 -0.005613304 -0.24263297
000370 20 80 13 be 2a 6c 15 3e dd 45 44 bc fc 80 a1 3d
       -0.14404345 0.14592043 -0.011979547 0.0788593
000380 79 b4 f9 3c 6a 79 0e 3d d8 0b cd bd 60 1b 86 bd
       0.030481564 0.03478376 -0.10012025 -0.0654819
000390 55 f6 fc 3d 60 ab 6e be b8 e3 07 3d 51 ea 99 bd
       0.123516716 -0.23307562 0.033176154 -0.075153954
0003a0 5f 48 94 3d ef cb 59 bd 5c 9f 48 3e be e2 c1 3e
       0.07240366 -0.053173 0.19592041 0.37868303
0003b0 4f 69 d2 bd dd 72 35 bc f5 d5 53 3e ce 4e 82 be
       -0.10273992 -0.011074749 0.20687087 -0.25450748
0003c0 9e 8d 38 3e 97 70 3d bc bf 3c 03 be 28 86 59 bd
       0.18022773 -0.011562488 -0.12816142 -0.053106457
0003d0 08 ec b4 3d 51 e5 12 bc de cb 35 3e 7c 34 8e bd
       0.08834082 -0.008965806 0.1775355 -0.06943604
0003e0 12 21 1b 3e 8e 5e 96 be 72 c5 2a bb 12 35 22 3e
       0.15149334 -0.29369015 -0.0026057628 0.15840557
0003f0 8a b9 53 3e 5d 12 29 3e d5 6c b7 bc 87 9e ad bd
       0.20676246 0.16510911 -0.022390762 -0.08477502

net.4.bias f4 [8]
000000 19 46 cb 3c fc 5a 63 3c fa e0 24 bc 4f df 2d 3d
       0.024813699 0.013876673 -0.010063404 0.04244929
000010 2a 65 e0 3c 6a 64 08 bd d7 57 88 bb 18 39 3d bc
       0.027391989 -0.033298887 -0.004160862 -0.011549257
